…
        "summary(model, input_size=(1, 28, 28))"
      ],
      "execution_count": 7,
      "outputs": [
        {
          "output_type": "stream",
          "text": [
            "Requirement already satisfied: torchsummary in /usr/local/lib/python3.6/dist-packages (1.5.1)\n",
            "cuda\n",
            "Is GBN run: False\n",
            "----------------------------------------------------------------\n",
            "        Layer (type)               Output Shape         Param #\n",
            "================================================================\n",
            "            Conv2d-1           [-1, 10, 26, 26]              90\n",
            "              ReLU-2           [-1, 10, 26, 26]               0\n",
            "       BatchNorm2d-3           [-1, 10, 26, 26]              20\n",
            "           Dropout-4           [-1, 10, 26, 26]               0\n",
            "            Conv2d-5           [-1, 16, 24, 24]           1,440\n",
            "              ReLU-6           [-1, 16, 24, 24]               0\n",
            "       BatchNorm2d-7           [-1, 16, 24, 24]              32\n",
            "           Dropout-8           [-1, 16, 24, 24]               0\n",
            "            Conv2d-9           [-1, 10, 24, 24]             160\n",
            "             ReLU-10           [-1, 10, 24, 24]               0\n",
            "      BatchNorm2d-11           [-1, 10, 24, 24]              20\n",
            "        MaxPool2d-12           [-1, 10, 12, 12]               0\n",
            "           Conv2d-13           [-1, 10, 10, 10]             900\n",
            "             ReLU-14           [-1, 10, 10, 10]               0\n",
            "      BatchNorm2d-15           [-1, 10, 10, 10]              20\n",
            "          Dropout-16           [-1, 10, 10, 10]               0\n",
            "           Conv2d-17             [-1, 12, 8, 8]           1,080\n",
            "             ReLU-18             [-1, 12, 8, 8]               0\n",
            "      BatchNorm2d-19             [-1, 12, 8, 8]              24\n",
            "          Dropout-20             [-1, 12, 8, 8]               0\n",
            "           Conv2d-21             [-1, 16, 6, 6]           1,728\n",
            "             ReLU-22             [-1, 16, 6, 6]               0\n",
            "      BatchNorm2d-23             [-1, 16, 6, 6]              32\n",
            "          Dropout-24             [-1, 16, 6, 6]               0\n",
            "           Conv2d-25             [-1, 20, 6, 6]           2,880\n",
            "             ReLU-26             [-1, 20, 6, 6]               0\n",
            "      BatchNorm2d-27             [-1, 20, 6, 6]              40\n",
            "          Dropout-28             [-1, 20, 6, 6]               0\n",
            "        AvgPool2d-29             [-1, 20, 1, 1]               0\n",
            "           Conv2d-30             [-1, 10, 1, 1]             200\n",
            "================================================================\n",
            "Total params: 8,666\n",
            "Trainable params: 8,666\n",
            "Non-trainable params: 0\n",
            "----------------------------------------------------------------\n",
            "Input size (MB): 0.00\n",
            "Forward/backward pass size (MB): 0.72\n",
            "Params size (MB): 0.03\n",
…
